nohup: ignoring input
----------------------------------------------------------------
        Layer (type)               Output Shape         Param #
================================================================
            Conv2d-1           [-1, 32, 23, 23]           6,176
              ReLU-2           [-1, 32, 23, 23]               0
            Conv2d-3           [-1, 64, 10, 10]          32,832
              ReLU-4           [-1, 64, 10, 10]               0
            Conv2d-5             [-1, 64, 8, 8]          36,928
              ReLU-6             [-1, 64, 8, 8]               0
           Flatten-7                 [-1, 4096]               0
            Linear-8                 [-1, 1024]       4,195,328
              ReLU-9                 [-1, 1024]               0
           Linear-10                    [-1, 3]           3,075
           Linear-11                    [-1, 1]           1,025
================================================================
Total params: 4,275,364
Trainable params: 4,275,364
Non-trainable params: 0
----------------------------------------------------------------
Input size (MB): 0.11
Forward/backward pass size (MB): 0.47
Params size (MB): 16.31
Estimated Total Size (MB): 16.88
----------------------------------------------------------------
<bound method Module.state_dict of CnnAC(
…
